set5_x2.pth (torch, 46100 bytes, 27 tensors)

first_part.weight f4 [45, 1, 3, 3]
000000 4e 73 16 3f ac c8 2f 3f 7a cf 0c 3d 06 d1 4e 3f
       0.5876969 0.68665576 0.034377553 0.80787694
000010 85 25 bd bf 35 45 2e bf 47 e0 b2 bd 6b 2a 2d bf
       -1.4777075 -0.6807435 -0.08734184 -0.6764285
000020 0a b9 48 3f e2 f8 17 3d 11 b5 92 3f eb c5 e9 3c
       0.7840735 0.037102588 1.1461507 0.028536757
000030 0c c7 d2 3e 76 dd cf bf 4f 15 ef 3e 75 ca a2 be
       0.41167486 -1.623946 0.46695945 -0.31795087
000040 19 6c 93 be 20 c5 a1 be 3d c1 af 3f 95 ba 12 bd
       -0.2879341 -0.31595707 1.3730847 -0.03582247
000050 69 c9 a9 bf d9 b6 1d c0 8d 59 7d 3c 55 46 1c 40
       -1.326459 -2.4642851 0.015463245 2.4417927
000060 89 6c a0 3f 64 6b 79 3d fc 30 ab bf ba bf 86 3e
       1.2533122 0.06089343 -1.3374324 0.2631815
000070 16 0c 91 3f 82 d3 14 3f cc 67 a5 be ae c6 20 c0
       1.1331813 0.58135235 -0.32305753 -2.5121264
000080 fb 26 85 bf 40 25 06 3d 5a fd 93 3f aa 3b be 3e
       -1.0402521 0.032750368 1.1561692 0.37154895
000090 2b ed b3 bb 1e f7 3a 3e 42 a7 e3 3c d3 19 a5 3d
       -0.005490919 0.1825833 0.027789716 0.08061566
0000a0 b3 f4 d1 3e 4d ee 86 3d fb 7d 13 bf 2f 81 91 bf
       0.41007003 0.06588421 -0.57614106 -1.1367549
0000b0 7b dc 52 bf 87 31 be bf fc 0d 34 bf 74 6b 73 bf
       -0.82367676 -1.4858865 -0.7033384 -0.95085835
0000c0 d6 26 84 3e a2 51 05 3f ec 83 4a 3e 2e 30 bd bd
       0.2581088 0.52077687 0.19776887 -0.09237705
0000d0 10 cd c0 3d 69 8c 3e be a1 65 dc 3d 1b 1e dc bd
       0.094141126 -0.1860825 0.10761572 -0.1074793
0000e0 74 2a 85 3e 3d fe ee bb 43 4d bc 3f 91 54 22 c0
       0.26008952 -0.007293491 1.4711078 -2.5364115
0000f0 63 a1 d0 3d 9d b6 08 be 71 20 84 3e 93 93 01 bd
       0.10187032 -0.13350911 0.25806 -0.03163488
000100 28 59 ba bf df 1d e7 3d eb 7a c9 3f 91 9e 9f be
       -1.4558458 0.11284994 1.5740637 -0.31175664
000110 07 c7 c5 3f bb 79 37 ba 68 79 ab bf f5 ed a5 bd
       1.5451363 -0.0006999035 -1.3396425 -0.08102027
000120 9e f0 14 bd 26 fc ef 3e 16 00 54 3e e7 95 26 3f
       -0.036362283 0.46872061 0.20703158 0.6507248
000130 1c 0c 69 c0 8b 32 7e 3f 28 0d 8c 3c 9d 10 d8 3e
       -3.641364 0.9929587 0.017096117 0.42200175
000140 8c e5 8a 3e 79 c2 ed be ce 4f 18 40 9a 47 0a bf
       0.27128255 -0.46437433 2.379871 -0.54015505
000150 b1 b8 b9 3f bb 48 b3 c0 a3 31 d0 3f e1 79 d7 be
       1.4509488 -5.602628 1.6265148 -0.42085174
000160 bf c7 0d 40 22 1a 01 bf 7a 36 11 bc 55 79 dc 3d
       2.2153165 -0.504305 -0.008863086 0.1076533
000170 92 bb 86 bf 6a 83 99 3c 4a f7 11 3f 7f 42 e4 bf
       -1.0525992 0.01873942 0.5701796 -1.7832793
000180 ee ad 6b 3c 85 73 9b 3d d3 31 86 bf 63 4d 8e bf
       0.01438473 0.07590393 -1.0483955 -1.1117367
000190 21 cc f9 3f dc ab 84 bf d5 5c 19 40 7b 53 8f c0
       1.951542 -1.0364947 2.396291 -4.4789405
0001a0 82 bd 11 40 2f 8d 69 bf 61 98 0a 40 7e 27 a0 bf
       2.2771916 -0.91231054 2.1655505 -1.2512052
0001b0 06 93 83 3d 00 66 ae bd 80 7c c8 3d 6d ad 17 be
       0.06424527 -0.08515549 0.097893715 -0.1481225
0001c0 31 6c 9f 3f db 0c 45 be 7c 34 e8 bc 3a 37 c9 bf
       1.2454892 -0.19243185 -0.028345339 -1.5719979
0001d0 57 9e 56 3e 11 7b bc bf 49 9b bd 3e c2 e2 91 3f
       0.2095884 -1.4725057 0.37032536 1.1397326
0001e0 58 3a 27 40 96 da 06 be d9 6f 36 c0 3b 42 a1 bf
       2.612936 -0.13169321 -2.8505766 -1.2598337
0001f0 be 23 26 be 98 34 e0 3f ce dc 2f c0 5e be 2c 40
       -0.16224572 1.751605 -2.7478518 2.699119
000200 38 b0 62 3d 5a 09 25 40 28 dc 2b 3d be 2f 27 c0
       0.055343837 2.5786958 0.041958004 -2.612289
000210 30 9a 80 3e a0 6d 2f c0 9e f8 1c 40 f0 e5 cd be
       0.25117636 -2.741066 2.4526744 -0.4021449
000220 05 f5 f0 3b ba 92 c7 3e bf 39 a1 3e 28 ef 12 c0
       0.0073534274 0.3897913 0.3148937 -2.295847
000230 73 80 de 3f 9b 7a e4 be f1 05 9d be ad 4e e5 3e
       1.738295 -0.4462479 -0.30668595 0.44786587
000240 2d 46 23 bf e2 24 1c 3d 81 0f 81 3d 01 cd 6e bf
       -0.63778955 0.03812111 0.06301785 -0.9328156
000250 53 3d d1 3e 02 6f 33 3d 8e e3 ef be 84 65 d1 bb
       0.408671 0.043807037 -0.46853298 -0.0063902754
000260 38 61 e6 bc cb 53 02 3f 54 e3 82 be 34 26 9e be
       -0.02812253 0.5090911 -0.25564063 -0.30888522
000270 58 8c 46 3f bc 2e ed bf 0a 0d 4b 3f 73 c4 3c 3f
       0.775579 -1.8529887 0.7931677 0.7373726
000280 43 bd 53 bd fe ef 19 bf a9 35 b0 3d 44 e4 aa bd
       -0.051694166 -0.60131824 0.08603985 -0.083443195
000290 1e d3 67 bc 87 8e 51 40 e2 65 40 c0 e3 97 83 be
       -0.014149455 3.2743242 -3.0062184 -0.25701818
0002a0 35 f7 51 3d ea 69 04 bd 48 cc 88 bc e9 80 af bd
       0.051261146 -0.03232757 -0.016698971 -0.085695095
0002b0 26 10 6b 3f ad 88 37 3f 4d fb 4a bf 6f 48 d2 bf
       0.91821516 0.71692926 -0.79289705 -1.6428355
0002c0 0b 9f 46 3f b1 24 74 3f 1e fe 25 bf 32 eb 4b be
       0.7758643 0.95368487 -0.6484088 -0.19913939
0002d0 a4 ed ab be 5e f7 0c bf f0 8f 99 be 52 ba e2 3e
       -0.33579743 -0.5506495 -0.29992628 0.44282776
0002e0 c9 d0 5f bf a7 90 80 3e be 12 08 be e7 36 93 3f
       -0.87427956 0.2511036 -0.132884 1.150113
0002f0 8a 67 04 bd a4 98 d7 bd 40 f5 1c c0 9a 79 91 bd
       -0.032325305 -0.10527161 -2.4524689 -0.07103272
000300 a7 70 58 3e 55 26 0f 40 8b 59 98 3d bd 29 bc bd
       0.21136723 2.2367146 0.07438954 -0.091876484
000310 26 0a bf 3d 0e 7e 5c 3c 40 29 06 39 87 7f 85 be
       0.093281075 0.013457788 0.00012794603 -0.26073858
000320 55 dd 88 3e 65 38 85 be db d0 6e c0 2a bc 7e 40
       0.26731363 -0.26019588 -3.7314975 3.9802346
000330 d9 b9 84 3e 73 3c 80 40 cf 71 88 c0 da be c1 bf
       0.2592304 4.007379 -4.2638927 -1.5136368
000340 b4 48 2d 40 03 eb bd bf 00 70 35 40 98 f1 97 c0
       2.7075624 -1.4837345 2.834961 -4.7482414
000350 9c ab 15 40 31 c8 c5 bf 3f 54 1e 40 f3 b0 93 bf
       2.3385992 -1.5451719 2.473892 -1.1538376
000360 7f 14 28 3e d5 18 37 be f1 d3 45 3e 14 57 0f bd
       0.16414069 -0.17880566 0.1931913 -0.034995154
000370 90 2f 10 40 47 44 28 be b7 9a 24 be eb d4 fa bf
       2.252903 -0.16432296 -0.16074644 -1.9596227
000380 36 0a fd bd eb bf 11 40 9a e8 2f c0 91 4c 1b 3f
       -0.12355463 2.2773387 -2.7485719 0.60663706
000390 b0 5c b0 bf 1b ba bc be da dc 3a 3f 7f cd 72 be
       -1.3778286 -0.36860737 0.7299324 -0.23711203
0003a0 31 0c 14 3f e5 e0 22 bd c5 c4 b4 3d 23 9e b8 3e
       0.578311 -0.039765257 0.08826593 0.3605815
0003b0 2c e1 72 be 7b 93 b9 3f 2f 9f fe bf 1b 33 a2 be
       -0.23718709 1.4498132 -1.9892329 -0.31679615
0003c0 e9 c3 00 be 8d c3 d6 3e f8 94 26 be a7 38 ed be
       -0.12574734 0.41946068 -0.16267765 -0.46332285
0003d0 32 6c a2 bf 59 12 a1 be b1 df 5d 3f 2b ec 1e 40
       -1.2689269 -0.3145931 0.8666945 2.4831645
0003e0 8c 4e 60 3f ff fa ba be 6d f9 a4 bf ad b4 05 bf
       0.87619853 -0.3651962 -1.2888619 -0.52228814
0003f0 91 a9 e7 3f da 6a 56 c0 c7 2c dc 3f 9d d5 9e bd
       1.8098623 -3.3502717 1.7201165 -0.07755587

prelu1.weight f4 [45]
000000 de 7c 1a bf c5 ca 14 3c 65 a2 64 bf 9a f9 e6 bc
       -0.6034678 0.009081547 -0.89310294 -0.028195191
000010 51 23 61 3b 34 f1 d9 ba 7c d3 c5 bb 8d 1e 7b be
       0.0034353326 -0.001662767 -0.006037174 -0.24523373
000020 ba 36 a5 bb c2 4d 18 bf 3e 97 28 3b 68 f6 86 3f
       -0.0050419243 -0.5949365 0.0025724913 1.0543947
000030 45 bd c7 bc 03 ac 95 3f 0b 41 50 bf 7d c3 43 bc
       -0.024382243 1.1693119 -0.8134925 -0.0119484635
000040 ce 82 9f 3b 2f 12 a3 bd ca c9 19 be 23 00 a6 be
       0.004867888 -0.079624526 -0.15018383 -0.3242198
000050 4a 8f 81 bc bc c3 9c 3f fb 27 61 bf 98 c1 06 bf
       -0.015815396 1.2247233 -0.8795163 -0.5263915
000060 b2 04 0e bf 73 c7 a8 3a d0 9c 27 3b e5 26 52 bf
       -0.55475914 0.0012876823 0.0025575645 -0.820906
000070 5c ce 65 bf 2b 46 79 bf b5 6c 19 3d 0c 2f 2d bf
       -0.89768004 -0.9737269 0.037457187 -0.6764991
000080 2c eb 62 bd 21 88 c6 40 8b 3d fd 3e 49 f2 47 bf
       -0.05540006 6.2041173 0.49461016 -0.7810407
000090 20 94 46 3e 7b 0c cc be 6d df 1a bf d7 af 55 bf
       0.19392443 -0.39853272 -0.6049717 -0.83471435
0000a0 3a 3b bb be 59 ae f4 3c f8 4a 38 bf 22 a1 be be
       -0.36568624 0.029868292 -0.71989393 -0.3723231
0000b0 ba cc 90 3f
       1.1312478

prelu2.weight f4 [4]
000000 00 00 80 3e 00 00 80 3e 00 00 80 3e 00 00 80 3e
       0.25 0.25 0.25 0.25

mid_part.0.conv.0.0.weight f4 [36, 45, 1, 1]
000000 ff bc 49 be c7 5a 4a bf 10 27 3c 3e 05 87 6b be
       -0.19701003 -0.79044765 0.18374276 -0.23000725
000010 e5 7c 02 40 4a 91 4b 3f 4a 85 6f 3d a2 f6 d4 3c
       2.038873 0.7951857 0.058476724 0.02599651
000020 89 49 3f 3f 09 5a 71 bd 17 00 2d 3f a4 42 2b 3e
       0.7472158 -0.058923755 0.6757826 0.1672464
000030 a2 5e 35 bf 02 9c b4 3c ff de f3 be 0a 96 86 bf
       -0.70847523 0.022047047 -0.4763107 -1.0514538
000040 7f 67 b3 3f 31 7f 30 bf 6b 0b 04 bf f5 f8 be be
       1.401596 -0.6894408 -0.5157992 -0.37299314
000050 e3 55 5b bf f1 3c cf be 33 48 e2 bb 4d cb 06 bf
       -0.8567793 -0.40476182 -0.0069055795 -0.5265396
000060 99 cc 6b bf e2 6f eb be c1 36 15 bf 31 45 32 bf
       -0.92109066 -0.45983797 -0.5828667 -0.6963683
000070 3c 08 ea 3e 73 99 70 bf f9 84 2f 3e 28 a7 2b 3f
       0.45709407 -0.93984145 0.17140569 0.67051935
000080 48 ff 35 bf 83 c0 d4 3d 46 70 2a 3f 89 f9 87 3f
       -0.71092653 0.10388281 0.66577566 1.0623027
000090 b1 cb 3e 3f 9f 1d 54 3e 3c 7d 67 3d a1 fc 36 3d
       0.7452956 0.20714425 0.056515917 0.04467452
0000a0 d5 50 c8 3f 77 99 ec 3d 49 20 91 3e a3 ea 2a be
       1.5649668 0.115527086 0.28344944 -0.1669107
0000b0 59 70 21 bf 2b 60 29 3e 72 df 44 3e 9c dc 48 3e
       -0.63062054 0.16540591 0.19225863 0.19615406
0000c0 89 6b 3e bf c9 23 ac bf d9 f7 98 bf e6 20 25 3e
       -0.74382836 -1.3448421 -1.1950637 0.16125831
0000d0 1a bb aa 3e 6d 9a 57 bf 55 36 96 be 21 74 80 bf
       0.33345872 -0.8422001 -0.29338327 -1.003544
0000e0 3a f5 1a bd 28 10 48 3f dc 2b 29 bd 70 a8 7f 3e
       -0.037831523 0.7814965 -0.041301593 0.24966598
0000f0 5b 89 ab 3e af de d0 bf d7 f7 57 be c7 17 1e 3f
       0.3350323 -1.6317958 -0.21090637 0.6175503
000100 64 a6 c9 bc 60 5b 0c 3f 22 d5 12 be a6 d6 aa 3d
       -0.024615474 0.5482693 -0.14339116 0.08341722
000110 87 ad 03 3f 19 b4 4e be c9 54 13 be 95 26 38 3a
       0.51436657 -0.2018589 -0.14387812 0.0007024792
000120 e0 03 9e bd ce d7 0c 3e 50 fd b4 3e 70 9f 92 3f
       -0.07715583 0.13754198 0.35349512 1.1454906
000130 d2 1c 2e 3e 5e 90 d3 be a2 0d be bd 94 eb 70 be
       0.17003182 -0.4132108 -0.09279944 -0.23527366
000140 ec 19 0c 3d e3 a8 e8 3e c2 07 85 3e 37 eb 14 bf
       0.03420441 0.4544135 0.2598248 -0.5817141
000150 67 0b c3 3d a7 28 d4 3e e1 d4 7b 3f a2 e5 00 3e
       0.09523659 0.41437265 0.983717 0.12587598
000160 6e e1 d2 3e 6f ec 2b bb 3d 4b c3 3c c5 d2 71 be
       0.41187614 -0.0026233455 0.023839587 -0.23615558
000170 fd 61 08 bd da 68 25 bd 4b f8 69 bf 73 05 87 bf
       -0.033296574 -0.040383197 -0.9139449 -1.0548538
000180 0c e8 0c bf 20 fb 5f 3e 1c 34 2e bf 2a e0 be 3d
       -0.55041575 0.2187314 -0.6804826 0.093201
000190 44 4c 1f bc 2a 2b 95 be 1b 08 83 bc 31 0d 89 be
       -0.009722773 -0.29134494 -0.015995076 -0.26767877
0001a0 23 bf f3 3d bf 1d 21 3e a0 fe 34 c0 b8 df 7a be
       0.11901691 0.15734003 -2.828041 -0.24499404
0001b0 a3 8b 8b 3f ad 5f 39 3e 03 34 66 be 47 26 33 3e
       1.0901989 0.18102904 -0.22480778 0.1749507
0001c0 bd 95 b1 3d 00 f0 48 3e df 9c 95 3d fa 2d 53 be
       0.086711384 0.19622803 0.073053114 -0.20623007
0001d0 b4 bb af bf 83 1e e0 bc d6 65 7c bc 72 b0 70 3e
       -1.3729157 -0.0273583 -0.015405139 0.23504809
0001e0 84 65 22 be a4 dc 01 3d f5 21 cb bd 2c be 9a 3b
       -0.15859038 0.03170456 -0.09918586 0.0047223773
0001f0 19 76 1a bf ad 2b 32 bd 16 b5 a9 3e fb 04 cf 3d
       -0.6033645 -0.043498684 0.3314597 0.10108372
000200 cf cf 41 3c 08 26 bd bd 87 57 b9 3e 9d 2c 61 bd
       0.011829331 -0.092357695 0.3619959 -0.054974187
000210 9d 05 c5 3c 8d 35 87 3e a1 a2 15 3e 64 bd ab bc
       0.024050528 0.26408044 0.14612819 -0.020964332
000220 5d b9 1a 3e 6f 30 2c 3c 06 cc 18 3d 9b a6 7a 3e
       0.15109773 0.010509594 0.037303947 0.24477617
000230 12 65 82 be f0 a8 b9 3c 24 fd 8a 3c 12 cd f9 bc
       -0.25467736 0.022663563 0.01696641 -0.030493293
000240 c2 0f 45 bc 28 bf c5 bb 73 62 25 bd 4f 7a 29 bd
       -0.012027683 -0.0060347505 -0.04037709 -0.04137641
000250 9b 8c 28 ba 88 26 c6 3b aa d4 e3 bc 09 3f 29 3f
       -0.0006429643 0.0060470738 -0.027811367 0.6611181
000260 c5 45 67 bd 3a b6 29 bc 06 dc 3f bc 20 f3 e2 3d
       -0.05646302 -0.010358388 -0.0117101725 0.11081529
000270 9e 12 88 3d a1 62 62 3b af 95 ae bc 4c 83 13 3d
       0.06644176 0.003454365 -0.02131161 0.036013886
000280 00 69 d6 bb f6 50 89 bc 0a 20 32 bd 6e fb e3 bb
       -0.0065432787 -0.016762238 -0.043487586 -0.006957463
000290 02 a7 57 3c 00 f5 19 ba 5f 64 33 bc c9 bb c7 bc
       0.013162376 -0.00058729947 -0.010949223 -0.024381535
0002a0 6f 16 2a 3f 38 42 1a 3d fe ac ba 3a 47 93 1c bd
       0.6644048 0.037660807 0.001424223 -0.038226392
0002b0 37 a8 29 3d b8 d7 01 3c 58 7d bc 3b 90 af e3 bc
       0.041420188 0.0079249665 0.005752247 -0.027793676
0002c0 41 28 ef 3c 69 dd 95 3b 68 ab 89 3c c9 02 c9 3c
       0.029194 0.0045735133 0.016805366 0.02453746
0002d0 3e 15 df bf da d9 65 be d1 76 6e bf f8 4a 4c 3f
       -1.7428358 -0.22446385 -0.9315005 0.79801893
0002e0 29 77 ec be 72 ac 83 be d0 a8 29 be 1d e9 c5 3f
       -0.46184662 -0.25717503 -0.16568303 1.5461766
0002f0 b4 9b 07 be 08 76 8f 3f 62 9b 6c be 14 3b a3 be
       -0.1324299 1.1207895 -0.23106149 -0.3188101
000300 de 99 47 3d 71 bf a9 3a cd b6 1f bf ed 36 6a be
       0.048730724 0.0012950731 -0.62388307 -0.22872515
000310 cc 98 dc bd ce b4 7b be 1c 37 6d 3f d6 10 e4 3f
       -0.10771331 -0.2458069 0.92662215 1.7817638
000320 e3 a6 b1 be 63 1f 8e 3e bf 61 87 bd 6a e7 17 bf
       -0.34697637 0.2775832 -0.066104405 -0.59337485
000330 bd a6 25 be af ae 96 3e a4 e7 56 be 9b cd 13 c0
       -0.16176887 0.29430148 -0.20986801 -2.3094242
000340 63 40 62 bf 4c f9 e1 3f 19 85 1d c0 65 b1 9a be
       -0.88379496 1.7654204 -2.4612486 -0.30213466
000350 8e d9 e5 3d 3a da ac 3d 14 2b dc bc 7f c6 2b be
       0.11223136 0.08440061 -0.02687601 -0.16774939
000360 6b 65 60 3e fd 9d 04 3e 35 d2 22 c0 1d 44 85 40
       0.21913688 0.12950893 -2.54408 4.1645646
000370 2e 1e bc 3e 4c 48 ec bf 52 f3 fb bf d4 80 46 bc
       0.36741775 -1.8459563 -1.968363 -0.012115676
000380 d0 3e 74 3d f9 99 95 bb c9 3b 84 3f f5 f7 ed 3d
       0.059630215 -0.004565474 1.0330745 0.1161956
000390 0c ab 80 3e 55 46 dc bf 1a ae 98 bf ea 7a 02 bf
       0.25130498 -1.7208964 -1.1928132 -0.509688
0003a0 b2 ed 19 3e 7c 75 0e 3e a3 26 00 3c dc 64 60 c0
       0.1503208 0.13912004 0.007821712 -3.506156
0003b0 db 32 a2 3e 98 85 05 3f 6f 61 a2 bc 25 52 12 3d
       0.31679425 0.5215697 -0.01982185 0.03572287
0003c0 73 22 24 bf c6 8e 0f 3f b3 f2 cf be 89 ab b1 3e
       -0.64115065 0.5607723 -0.40614852 0.34701183
0003d0 d6 66 c8 bd 82 13 8d 3f 5a 44 b6 3e c2 dc 14 3c
       -0.097852394 1.1021578 0.35599023 0.009085836
0003e0 e6 8d 39 3d f2 8c 9a 3e a6 0d 7e bd 9d 69 b3 be
       0.04530134 0.30185658 -0.062024735 -0.35041514
0003f0 ff 6f 74 bd 52 a3 74 3c 2a 44 81 3c 0c 12 55 bb
       -0.05967712 0.014931517 0.015779573 -0.0032511977

mid_part.0.conv.1.0.weight f4 [36, 1, 3, 3]
000000 08 97 1c 3d 32 2b ee 3c e4 bf 2e 3d 74 e8 91 3d
       0.038229972 0.029073332 0.04266347 0.07124415
000010 59 fa df 3d bb 78 90 3d a9 9f 18 3d ef 8b f6 3c
       0.10936422 0.070542775 0.03726164 0.030096022
000020 9d 02 2f 3d df 5c fa 3d 88 97 c5 bc 94 59 14 3e
       0.0427271 0.12224745 -0.024120107 0.14487296
000030 c8 2c b8 3b 6b 4c 0c bf d3 04 23 bc 19 c2 fb 3d
       0.0056205727 -0.54804105 -0.009949881 0.122928806
000040 1d 4c 63 bd de 73 db 3d 11 a7 a4 3b 5e 25 ef 3d
       -0.05549251 0.10715459 0.0050247987 0.11677049
000050 ad 90 de 3d d7 1a b4 be 9e 00 99 be eb 66 9a 3e
       0.108674385 -0.35176727 -0.29883283 0.30156645
000060 17 79 da bd 4c 14 a5 bc 93 98 c4 3d 5d a6 84 bd
       -0.10667627 -0.02015128 0.09599414 -0.06477044
000070 9d d0 86 bf 7f e2 a9 bd f1 84 96 3d b7 ee 77 3f
       -1.0532414 -0.08295154 0.07349575 0.96848625
000080 2e 32 63 3d d6 85 19 bc 68 47 a8 3d 14 1d dd 3c
       0.055467777 -0.009370288 0.08216745 0.026991405
000090 84 e3 20 3d 51 f1 49 3d 9f d9 a6 3c eb bb 56 3d
       0.039279476 0.049302403 0.020367442 0.052425306
0000a0 52 f3 b2 3d 53 88 63 3d c5 77 d1 3c cb c7 3b 3d
       0.08737816 0.05554993 0.025569806 0.045844834
0000b0 71 16 59 3d 28 4f 38 bd 55 28 a5 be 39 4a ad 3e
       0.052999917 -0.044997364 -0.32257333 0.3384569
0000c0 e8 9f c0 3e cc 89 a0 bd 81 92 9d be e0 55 33 3d
       0.37622 -0.07838783 -0.30775836 0.04378307
0000d0 60 9c b0 be ea b6 9d 3e 52 59 42 3d 1d d8 65 3d
       -0.34494305 0.30803615 0.047448464 0.056114305
0000e0 bc 24 9a 3d b8 bd 2f 3d 1a 6d 06 3e f2 77 ef 3c
       0.07526538 0.04290554 0.13127556 0.029232
0000f0 9b de 65 3d 11 21 a2 3d e3 ed 8c 3d 2d 66 ba ba
       0.056120496 0.07916463 0.06881311 -0.0014221125
000100 91 b7 3c 3d 34 a2 9f 3a a3 89 9a bb 6d 09 c4 3e
       0.0460735 0.0012179078 -0.0047161146 0.3828844
000110 7c 5a d6 bc 62 60 e3 3b bb 21 3c 3d a3 a8 c9 3b
       -0.026166193 0.00693898 0.045930605 0.0061541363
000120 a3 c1 2e 3d 81 43 f1 3d 88 73 49 3d 4e 44 b4 3d
       0.042665135 0.117804535 0.049182445 0.088020906
000130 c3 d8 f3 3d a6 10 c1 3d 55 c8 39 3d 3b a0 0b 3e
       0.119065784 0.094270036 0.045357067 0.13635342
000140 b5 b2 93 3d 75 4a 39 3d ed 05 aa 3d 68 e2 14 3d
       0.0721182 0.045237023 0.083019115 0.03634873
000150 65 60 83 c1 f9 cd 7a c1 97 35 95 c1 63 70 63 c2
       -16.422068 -15.675286 -18.651167 -56.859753
000160 04 3c 48 c2 02 7b 55 c2 dc 66 ea 3d 5c f9 83 bd
       -50.05861 -53.370125 0.114454 -0.06444046
000170 21 4c 0a 3e d5 a3 93 bd 3c c0 2f bd 75 6b 56 bc
       0.13505603 -0.07208983 -0.04290794 -0.013087143
000180 98 5a 0c 3e 1d cc 08 bc a9 ea 08 3e 0f fa b4 3d
       0.13706434 -0.008349446 0.13370766 0.088367574
000190 5b 13 9c 3f 95 b0 84 3d aa 7d dc bd 36 48 8f bf
       1.2193407 0.06478993 -0.10766156 -1.1193912
0001a0 c9 6f 1c bd a9 03 b2 3c 87 b1 b5 bd 40 8d bf bc
       -0.038192544 0.02173026 -0.08871751 -0.023382783
0001b0 ff 99 51 c0 9c bb 45 c1 ef fb d1 c0 db fc e4 3c
       -3.2750242 -12.358303 -6.5620036 0.027952602
0001c0 2b 5d 62 3e 40 c9 d7 3c fa 56 68 3d 49 87 7c 3c
       0.22105853 0.02634108 0.056723572 0.015413114
0001d0 25 32 37 bc 54 d6 c2 ba 42 fa 28 bb b4 3d f6 ba
       -0.011181389 -0.00148649 -0.002578393 -0.00187867
0001e0 ad 35 bd 3b b3 18 01 bc 34 38 66 3b 1b 03 d9 3c
       0.005774221 -0.007879424 0.0035128715 0.026490739
0001f0 5d 40 e1 3e 65 0b a6 3c 84 fa 27 bb bc 8e 3b 3a
       0.43994418 0.020269105 -0.0025631497 0.0007154753
000200 9b 88 d5 3a 8c 0b 12 3c e9 f7 49 bc c4 c4 bc 3b
       0.0016291322 0.008913886 -0.012327173 0.005760761
000210 fb 5d 5a 3d 1a 7f ef 3e 91 bc 27 3d bc 2c 42 be
       0.053312283 0.46776658 0.040951315 -0.18962377
000220 4c b7 c0 3d 2a 7d f5 bd 45 ee 4d 3e 82 db 4a be
       0.09409961 -0.11986764 0.20110424 -0.19810298
000230 48 15 80 3e ed ee 14 3e d8 6e 9d 3d d6 24 c9 bd
       0.25016236 0.14544268 0.076871574 -0.09821479
000240 f0 a4 24 3d 74 16 6f 3c 75 5b 02 3d 81 02 ac 3d
       0.04019636 0.014592756 0.0318255 0.08398915
000250 6f 3a b8 3d fa e2 8c 3d e8 fb 32 3d ad fe 43 3c
       0.0899552 0.0687923 0.043697268 0.011962575
000260 46 97 37 3d 7c 16 8f 3c b7 e4 d4 3d d1 26 79 bc
       0.044822 0.017466776 0.103951864 -0.015207008
000270 b0 78 d9 3d 33 06 98 3d 7e 66 e5 3d 6b 3a 5a 3a
       0.106187224 0.074230574 0.112011895 0.0008324745
000280 3e 85 fb 3d c1 89 b4 bc 22 15 12 3c 7a be dc 3c
       0.12281273 -0.022038342 0.008916171 0.026946295
000290 8c e8 2b bb b7 22 2e bd f5 f8 c2 3e ad ee d9 3a
       -0.0026231138 -0.042513575 0.38080564 0.0016626917
0002a0 39 bc 16 3c 34 a5 04 3d ac d3 a5 ba 8d 49 9e 3d
       0.009200149 0.032384112 -0.0012651584 0.077288724
0002b0 16 ce c0 3d b3 1d 4c 3c 73 2a b5 3d 37 4a b4 3d
       0.09414308 0.012458253 0.08845987 0.08803218
0002c0 eb 4a 17 3d 87 bc 09 3d 3f 03 28 3d b6 b7 31 bd
       0.03693668 0.03362706 0.04101872 -0.04338809
0002d0 7a c9 6a 3d 4b d7 29 3e a0 9d 45 3d 9a be ae 3d
       0.05732105 0.16586034 0.048246026 0.08532448
0002e0 7f 1f 99 3d 40 49 49 3d 77 8b 37 bb 10 bf 4c bd
       0.074767105 0.049142122 -0.0028006712 -0.0499869
0002f0 59 8b 89 3c 3d 59 f4 3c 52 03 17 3e ad 3a 60 3c
       0.016790079 0.029827708 0.1474736 0.013685864
000300 13 ba f1 3c bc 3b 26 3e 4d a5 6e 3c db 32 bf 3c
       0.029507672 0.16233724 0.014565778 0.02333968
000310 59 4f 14 3e cb fb 95 3c ea 0e 95 3c 56 d9 22 3d
       0.14483394 0.01830854 0.018195588 0.03975805
000320 bd 09 74 3c dc 52 05 3e 29 a7 32 3e 3a 4f fd 3d
       0.0148949 0.1301989 0.17446579 0.12368627
000330 7e 0a be 3c ab b7 5a 3d 36 63 b6 3c 42 da b9 3d
       0.023198362 0.053397816 0.022264104 0.090748325
000340 79 c7 0f 3d bf 9b fe 3d c6 19 99 be 46 12 ac 3c
       0.03510234 0.1243205 -0.29902476 0.021004807
000350 94 86 cf be af 09 6c 3d f2 7a 80 3d 4b b9 a4 3d
       -0.40532362 0.057626422 0.0627345 0.08043154
000360 bd a5 28 3d 4a 2c 88 3d b8 88 0c 3b 01 8e 33 3e
       0.041173685 0.066490725 0.0021443795 0.17534639
000370 a3 81 97 3d 9a ad a9 bd 35 85 85 3d 10 44 70 3d
       0.07397773 -0.08285065 0.06519548 0.05865866
000380 0d af b3 bc e5 47 58 3d 45 ff 27 3e 0d f7 cf 3c
       -0.021934057 0.05280294 0.16405971 0.025386358
000390 de 4a e3 bc da 76 28 be 82 5f 0f bc 3d d4 b1 3c
       -0.02774566 -0.16451588 -0.008750798 0.021707648
0003a0 f2 45 33 3e bb a7 00 3d 72 e0 9e 3e ee d6 c0 c0
       0.17507151 0.03140996 0.31030613 -6.0262365
0003b0 76 ed 28 3f 63 56 fc 3e 5e d9 2a c0 d7 12 e0 be
       0.65987337 0.49284658 -2.669517 -0.43764374
0003c0 9e 0a 5b bf 21 08 d9 c2 a6 28 2b be 0d 07 14 3d
       -0.85563076 -108.51588 -0.16714725 0.036139537
0003d0 f4 cc 96 3c fc 09 23 bb 14 84 eb 3e e8 e6 dd bb
       0.018408276 -0.0024877777 0.45999205 -0.006771911
0003e0 f7 9b 7f 3b 0b f0 4b 3d f5 de 09 3c 08 b8 81 ba
       0.0039002874 0.04978947 0.0084149735 -0.0009896765
0003f0 2c 82 b6 3c 0b f4 42 3d af 99 1a bd fa 65 bc 3c
       0.022278868 0.04759602 -0.03774422 0.022997845

mid_part.0.conv.2.weight f4 [18, 36, 1, 1]
000000 c5 5a 19 3f 6a 49 50 bd ad a0 8b 3e 42 b8 d9 3d
       0.5990413 -0.050851263 0.27271023 0.106308475
000010 55 c2 f9 3e 47 71 93 3d 6f 82 b0 be e7 8d 3f 3e
       0.48781076 0.0719934 -0.34474513 0.18706475
000020 8c 9e 01 bf 02 3b 79 be 02 6b 20 3d 84 09 26 bd
       -0.5063255 -0.24338916 0.03916455 -0.04053642
000030 7a a8 b5 be ed 7b b6 3d 42 13 2f bd 11 e6 e9 bd
       -0.354801 0.08910356 -0.042742975 -0.11420835
000040 92 e3 67 3e de 32 fa be fb 76 8c 3d be f5 84 3e
       0.22645405 -0.48866934 0.06858631 0.25968736
000050 dd 4a e4 bc cc d7 3f be 4b b7 e0 be 8d 3d 17 be
       -0.027867729 -0.18734664 -0.4388984 -0.14769574
000060 b9 4c 4a 3d 91 13 f5 3d 35 8a e9 bc 4c ae 3a 3e
       0.049389575 0.119666226 -0.028508285 0.18230551
000070 f4 be 25 bd fb 0b 4e 3e d8 bb 7e bd 31 76 58 3d
       -0.04046531 0.20121758 -0.06219086 0.05284709
000080 bc 3d 9b 3e b9 16 1e 3f 98 28 33 be 19 5b f6 3e
       0.30320537 0.6175342 -0.17495954 0.48116377
000090 42 65 05 3d 4b 08 b2 3d ab d1 57 3d 6a 8a 08 be
       0.03256727 0.08692988 0.05269019 -0.13334051
0000a0 8a e3 6a 3e e0 09 9f bc e7 00 6a bd 13 a3 2d bd
       0.22938362 -0.019413888 -0.057129767 -0.042391848
0000b0 9f b8 98 bd 93 b8 d5 3c e1 28 58 bd 9d 77 80 3d
       -0.07457089 0.026088988 -0.05277336 0.062728144
0000c0 c1 4f 0b 3f 1f 3c f1 bd 8e c0 c3 3d 01 f6 25 3e
       0.5441857 -0.11779045 0.09558211 0.16207124
0000d0 90 98 20 be 67 99 cf 3c 03 c2 69 3d 3a ec d2 3d
       -0.15683198 0.025341703 0.05706979 0.10298963
0000e0 99 27 e4 3d d5 22 1f bc 1e 36 1e be 0d 66 d9 bd
       0.11140365 -0.009712894 -0.15450332 -0.10615168
0000f0 de 9c b5 bd c0 0a 6b 3e 20 c8 c9 bb 4f 83 8e bb
       -0.08867811 0.2295332 -0.00615789 -0.0043491493
000100 3d c1 5f 3b 92 55 e3 3d 02 5c 34 3d 81 ec 1b 3e
       0.0034142279 0.111003056 0.044033058 0.15226938
000110 68 1e 19 3e af a2 d1 3d b7 4a c5 bd c9 74 5c bd
       0.14953005 0.102361076 -0.09633391 -0.053822313
000120 75 a2 b6 3d 43 22 52 be 40 87 ce be 64 c6 de bb
       0.08917705 -0.20520882 -0.40337563 -0.0067985523
000130 55 68 9c 3d cf 48 02 be 5b 0f 87 3c d8 f5 fe bc
       0.07637087 -0.12723087 0.016486814 -0.031123087
000140 cf fb b2 3d 61 47 b4 bb 73 29 a1 be 48 f4 94 3c
       0.08739435 -0.005501673 -0.31476936 0.018182889
000150 dc 33 88 bd e7 69 db bb 53 cf 3b 3d 60 a6 89 be
       -0.066505164 -0.006695974 0.045852017 -0.26884747
000160 f6 2e a2 be 90 6c 11 bd 10 a5 38 bd d3 4c 06 bf
       -0.31676453 -0.035503924 -0.04507929 -0.52460974
000170 a9 dd f4 3c 4f 7e fe 3e 00 e9 22 3b e2 7e 2f be
       0.029890852 0.4970574 0.0024858117 -0.17138246
000180 3d 77 b4 be 0f 47 ba be 70 34 28 3e 4e f7 00 be
       -0.35247222 -0.36382338 0.16426253 -0.12594339
000190 61 f3 7a 3d b0 e4 c6 be bf 9c 92 3a a4 92 cd be
       0.06126726 -0.3884635 0.001118563 -0.4015094
0001a0 7c d9 9b be ef dc c4 be b1 d9 8b 3e 56 30 d4 3d
       -0.30439365 -0.3844981 0.27314523 0.10360782
0001b0 ca 15 36 3e 1f d2 a2 3d 22 4d 63 be c7 aa 3f 3f
       0.1778175 0.07950234 -0.22197393 0.7486996
0001c0 3e 2f ef bc e3 25 84 be fb 5d a7 3c 54 37 02 3f
       -0.029197332 -0.25810155 0.020430556 0.50865674
0001d0 54 5f 95 bc 46 35 ac bd 45 86 e8 be 4e c7 83 be
       -0.018233933 -0.084085986 -0.4541494 -0.25737995
0001e0 d2 62 38 c0 86 db 1c 3f 2e 4b 81 bd 1a 64 2e be
       -2.8810315 0.61272466 -0.063131675 -0.17030373
0001f0 37 5e e5 be 87 36 c6 bd f2 fa 79 3d b1 6b cb be
       -0.44798443 -0.09678369 0.061030336 -0.397306
000200 b4 56 6a 3e 75 5f b5 bd 3d 3d cf bd c3 17 99 be
       0.22884637 -0.088560976 -0.10119102 -0.2990094
000210 95 73 94 be 99 fb 6b be 3d da ec 3e ba a2 c9 3e
       -0.28994432 -0.23045196 0.46260253 0.39381963
000220 1d d8 2b 3d 2b 40 0c 3e 1b b9 1d be 18 ac a4 be
       0.04195415 0.13696353 -0.15402643 -0.32162547
000230 e6 cf 23 bd f0 c6 10 be 8f df 42 3e 85 07 af 3e
       -0.03999319 -0.14138389 0.19030593 0.34185424
000240 15 93 e6 be b5 ef eb bd 34 94 aa be 63 1b c1 3b
       -0.4503409 -0.1152033 -0.33316195 0.0058931573
000250 4e f8 e5 bc 42 71 1a bd cb 49 6b be 51 a0 39 3e
       -0.028072502 -0.037705667 -0.22977369 0.18127562
000260 d9 3f 37 be e9 d6 f5 3e be de e2 be bf b7 5f be
       -0.1789545 0.48015526 -0.44310564 -0.21847437
000270 4c 54 06 3c 09 96 3e 3e 5c 29 bb be ec c1 82 be
       0.008198809 0.18611921 -0.36554992 -0.25538576
000280 7d 1c 8f 3e a2 56 00 bf 39 62 85 be 9f ba c7 bd
       0.27951422 -0.5013219 -0.260515 -0.09752392
000290 e3 b0 ea 3e 57 50 7c bf 73 ad 83 3e 49 e8 c5 3d
       0.4583808 -0.9856009 0.2571827 0.096634455
0002a0 7b 33 d0 be fd 9a 19 3f 38 c2 dc 3e 31 e4 e4 3d
       -0.40664276 0.6000212 0.43116927 0.111763366
0002b0 de 5a 48 3d ba 3f 93 be 15 eb 1b 3e 4a c5 85 be
       0.048914783 -0.28759557 0.15226395 -0.26127082
0002c0 d4 4f 2e be fc 4b b3 3e fc 68 b8 3e 36 4e a2 39
       -0.1702264 0.3501891 0.36017597 0.0003095732
0002d0 f4 f1 be 3d 61 1d 7a bd 67 a6 89 bd dc 5b 9d bd
       0.09323493 -0.061063174 -0.06721192 -0.076835364
0002e0 5a 59 2b bd 42 91 68 bc b9 73 d0 3c 72 22 76 3c
       -0.04183326 -0.014194788 0.025445806 0.015022861
0002f0 8d 50 35 bd 2f fb a1 3c 3e 9e 38 bd f3 2e d8 3a
       -0.044266272 0.019773094 -0.045072787 0.0016493484
000300 f6 74 98 3e 3b 1b 2a bd 84 a4 98 39 6a 4e 73 bf
       0.29776734 -0.041529875 0.00029114273 -0.95041525
000310 5f eb dc be 35 81 fc bd ee e6 a0 3d 54 ce a3 be
       -0.43148324 -0.12329332 0.07856546 -0.31993353
000320 75 24 99 3d 97 88 80 3d a0 bd 76 3c 86 b8 fe bd
       0.07477657 0.062760524 0.015059859 -0.12437539
000330 19 04 db bd 45 87 1f be 7b fa 93 be 41 c4 80 3d
       -0.10694141 -0.15578945 -0.2890204 0.062874325
000340 76 fd 26 3c 7e db 9d 3d 74 95 2c 3e 5b 3f 0c 3e
       0.010192266 0.077078804 0.16853887 0.13696043
000350 14 f0 0b bd 23 8b d5 3e 02 74 c5 bd 25 e2 13 3d
       -0.034164503 0.41707715 -0.09641267 0.03610434
000360 d8 5e 86 3c b5 d2 29 3d fb 5b 01 bd d8 d2 ef bd
       0.016402647 0.04146071 -0.03158186 -0.11710137
000370 a4 8c 0f bf cd d7 3c 3c fc 69 d4 3c 15 da de bd
       -0.56073976 0.01152606 0.025929444 -0.108814396
000380 22 f7 b9 bc bd ad a1 3d 11 2f 9b bb ae 0f 51 3d
       -0.02270085 0.07894466 -0.0047358354 0.051040344
000390 d0 94 05 3f db f9 03 be 41 5e cd 3d 2d 64 fd bd
       0.52180195 -0.12888281 0.10027743 -0.12372623
0003a0 7b 26 68 3e c3 37 ad 3d a5 cc a6 3d 59 0a 30 be
       0.22670929 0.08457901 0.081445016 -0.17191447
0003b0 fc df 58 3c 5d 17 c5 3d 22 e1 ea bd 3f 5b 0e 3d
       0.013236996 0.09623597 -0.11468722 0.034754988
0003c0 d8 62 c5 bd d8 ef 1a 3e 1f b2 01 be 1e 38 da bd
       -0.096379936 0.15130556 -0.12665604 -0.10655235
0003d0 97 15 4a bc 62 5d 29 3e 4b f4 f7 3d c6 33 40 3e
       -0.012334249 0.16539529 0.12107142 0.1876975
0003e0 54 a4 90 b8 1f ac 0a 3e 98 2f f7 bd f9 cb d0 3e
       -6.8970636e-05 0.13542221 -0.12069625 0.4078062
0003f0 18 be bd 3e 1c e2 28 bd b2 c3 2b 3d 19 2a 95 3d
       0.37059093 -0.04123126 0.041934676 0.0728342

mid_part.1.conv.0.0.weight f4 [18, 1, 3, 3]
000000 8c 0a 96 be 82 e9 9c bd 71 ec 9b be b2 9e 77 bd
       -0.29304922 -0.076617256 -0.30453828 -0.060454078
000010 6f b1 ae 3e 4a 37 d7 bd 5d 9c a3 be 47 b0 bb 3b
       0.34119746 -0.105085924 -0.31955233 0.005727801
000020 20 e0 a7 be 6e 37 cd 3c c3 ea c9 3e 6e f3 7a bc
       -0.3278818 0.025050845 0.3943692 -0.015316827
000030 0d 8d 36 3e aa d0 97 be 77 30 41 3e a5 2c b2 bd
       0.17827244 -0.29651386 0.18866144 -0.086999215
000040 f4 b8 bf 3e 2d a0 23 bc bb 4c a8 3d 78 21 a9 3d
       0.37445796 -0.009986919 0.0821776 0.08258337
000050 c0 00 d2 3d 21 b8 ae 3d fa 2e a8 3d 30 10 a8 3d
       0.10254049 0.085312136 0.08212085 0.082062125
000060 dd b7 d3 3d df 73 a0 3d 0e 3b f9 3d e7 2a 1a 3d
       0.103378035 0.07834601 0.12169467 0.03763857
000070 8a 2f 2f 3d 92 ac 7f 3d 50 d5 0a bb 36 58 d4 3c
       0.042769946 0.062420435 -0.0021184273 0.025920969
000080 6d 0e 09 be 14 1f 45 bd f6 2b 03 bf 6d 91 0d be
       -0.13384409 -0.04812534 -0.51238954 -0.13825007
000090 34 7a 8c bc 9b 86 b4 bd 5d 56 02 bd fa a7 d3 bd
       -0.017148115 -0.088147365 -0.031820644 -0.10334773
0000a0 51 73 64 be 5e 81 e7 bd e6 1a 0b bd 17 39 d9 bd
       -0.22309615 -0.11303972 -0.0339612 -0.10606592
0000b0 25 cd 4a bd db 78 81 3d c1 b7 ba 3e 85 3e 8e 3d
       -0.049512047 0.063218795 0.36468318 0.069455184
0000c0 e7 03 a3 3d 4c 53 49 bd 61 cb c5 3d d8 a2 92 3d
       0.07959729 -0.049151704 0.09657932 0.07159966
0000d0 24 2d c3 3e a7 cd c5 3c d5 3e c1 bd 87 ad f6 3d
       0.38120377 0.024145914 -0.094358124 0.120448165
0000e0 2a af cf 3e 8a 82 02 3e d8 32 4f 3e c4 5d 22 3e
       0.40563327 0.12745109 0.20234239 0.15856081
0000f0 12 65 bf 3e 40 d2 f9 3d 97 fa 86 bd 0b 2b 1c 3e
       0.37381798 0.12198305 -0.06590765 0.15250795
000100 ab 88 4b bc bb 63 20 3e a7 70 0b 3e 63 1b 64 3d
       -0.012422721 0.15663044 0.13617192 0.05569018
000110 4b 4b f7 3d 05 c4 24 3e ac 67 34 bc e6 e7 1d 3e
       0.12074908 0.160904 -0.011011045 0.15420493
000120 80 68 b0 ba 7b ef 55 be 34 a6 2d 3c 47 0a 64 3e
       -0.0013458878 -0.20892136 0.010598708 0.22269545
000130 97 3a ec be 35 cd fd 3b f9 69 22 3d 18 7a 80 be
       -0.4613845 0.00774541 0.039651845 -0.2509315
000140 e0 90 dd 3c 9c 6c d5 bc 2f cb 9e 3d 25 23 a6 3c
       0.02704662 -0.026052766 0.07753598 0.02028043
000150 91 fe f4 bc 34 7a 2b 3d 3e 15 b7 bd b2 53 03 3e
       -0.029906543 0.04186459 -0.089395985 0.12824896
000160 24 8f bb 3d e4 29 42 3e 80 ad b3 3c 4d c2 48 bd
       0.09158161 0.18961293 0.021933317 -0.049013425
000170 58 6a 28 3d e8 83 15 bd 0b b6 8e bf e5 16 92 3f
       0.041117042 -0.03650275 -1.1149305 1.1413237
000180 5e 9d 99 3c 93 1c 60 bd 97 90 34 3d 88 c2 9b 3c
       0.018751796 -0.05471475 0.044083204 0.019013658
000190 67 53 09 3f 39 28 4e bc 4b 4b 9e 3e de 63 4a 3f
       0.53642887 -0.012582832 0.3091682 0.79058635
0001a0 f0 53 dd 3e 91 47 b6 bd dc 4b 28 3f 9f 0d 9f bd
       0.43228102 -0.08900369 0.6574075 -0.0776627
0001b0 02 a2 c8 bd 71 c3 2f be 16 76 9b bd 6e 8f 43 be
       -0.097965255 -0.17164399 -0.075908825 -0.19097683
0001c0 02 bc 8c 3e 0f 73 53 be 81 43 ca bd 80 40 4f be
       0.2748719 -0.2064936 -0.098761566 -0.20239449
0001d0 14 70 d5 bd 33 8d d4 bd 9a 1a c3 bc 53 7e 7c 3d
       -0.10421768 -0.10378494 -0.023816396 0.06164391
0001e0 9d 53 f1 bc 13 47 28 3e a7 84 64 3e df b4 f6 bd
       -0.029458815 0.16433363 0.22316228 -0.12046217
0001f0 70 06 2d bd 29 53 2f 3d 74 86 a4 3e 27 c1 9a 3d
       -0.042242467 0.042803917 0.3213383 0.07556372
000200 0b 13 b1 bd 78 73 d3 3d 43 32 1b 3e c5 b5 fa 3d
       -0.0864621 0.10324758 0.15155892 0.12241701
000210 dc 1c 82 bd c7 43 cb 3d ba 65 bc 3e 40 ef 12 3e
       -0.06353161 0.09925037 0.3679636 0.14349079
000220 a1 d4 60 bd 26 95 89 bd ba 24 2a 3e 2e af 52 3e
       -0.05489028 -0.06717901 0.16615573 0.20574638
000230 aa 44 c0 be 1f 93 0b 3e ba 80 22 bd e2 dd 90 bd
       -0.37552387 0.13630341 -0.039673544 -0.07073571
000240 cd a3 09 3e 5c 2a 48 3e 3d 29 e6 3d b1 f7 58 3e
       0.13441391 0.19547409 0.11238334 0.21188237
000250 e7 bc bc be 37 1d 19 3e 26 e1 08 3e 55 8f 51 3e
       -0.3686287 0.14952551 0.13367137 0.20464833
000260 22 6b f7 3d 21 02 68 bc 5a 21 51 bd 81 e6 98 3c
       0.12080981 -0.014160664 -0.051057197 0.0186646
000270 bb 1e cb be ed a4 cf 3d a4 ed ba be fc fa 45 3d
       -0.39671883 0.10138879 -0.3650943 0.04833506
000280 b8 4f 90 bd 4f 02 85 3d
       -0.07046455 0.06494581

mid_part.1.conv.1.weight f4 [18, 18, 1, 1]
000000 91 ca 85 3e d4 34 50 be 62 38 79 3e e0 d2 a4 be
       0.26131108 -0.20332652 0.24337915 -0.32192135
000010 f5 b5 73 3f 4c f3 3a 40 fb b0 59 bf 8b 44 e7 bf
       0.9519952 2.9210997 -0.85035676 -1.8067793
000020 99 d6 e1 be a3 ab 35 3e 99 d1 e1 bd 57 82 da 3f
       -0.44109038 0.17741255 -0.11026306 1.7071027
000030 fd 66 95 bf 7a b1 17 3f a5 c9 08 3e 09 07 c9 3e
       -1.1672055 0.5925518 0.13358171 0.3926318
000040 c3 4b d6 3e 7b ff 32 3f 86 82 59 3f 33 b3 33 3d
       0.41854677 0.6992108 0.8496479 0.04387207
000050 89 72 e8 3e 15 9b 1a be 7d 88 a5 3e e8 db 0b be
       0.45399883 -0.15098222 0.32330695 -0.13658106
000060 0a 4f 01 c0 e1 d1 91 be c1 ce a4 be 7f ec 9c bd
       -2.0204492 -0.28480437 -0.3218899 -0.076622956
000070 e8 8e 0b bc 28 52 c6 be 8c a4 52 bd 86 88 d3 3d
       -0.008517958 -0.38734555 -0.051426455 0.10328774
000080 1e 13 b1 3f 90 d6 91 3e 98 69 8c 3c c9 56 15 3f
       1.3833959 0.2848401 0.017140195 0.5833555
000090 fa 5b 7c 3e 3b e4 01 3f d3 94 8c bf ac 88 48 be
       0.24644461 0.5073888 -1.0982918 -0.19583386
0000a0 fa 72 30 3d b2 c2 e9 bf 2f 76 02 3d ad 23 38 bf
       0.0430784 -1.8262541 0.03185099 -0.71929437
0000b0 7a a7 88 bd 77 38 08 39 65 a6 28 3e 0d 85 2c bf
       -0.066725686 0.00012991005 0.16469724 -0.6739052
0000c0 29 be dc 3f bd e4 6a bf 53 9e 2b 3f 61 c8 fd 3d
       1.7245532 -0.91755277 0.6703846 0.12391735
0000d0 7e 53 27 bf dd 31 88 bf a3 42 05 3f 80 bc 20 be
       -0.65361774 -1.0640217 0.52054805 -0.15696907
0000e0 b6 83 9e 3e 85 3e 90 be 08 5f c5 3e 02 96 b1 bf
       0.30959862 -0.281727 0.38549066 -1.3873904
0000f0 c3 02 4c bf 2b 90 87 bf 84 eb 91 3d 14 a2 c4 bd
       -0.79691714 -1.0590872 0.07124999 -0.096012264
000100 be 61 e6 3d a8 c3 00 bf 7f 63 0c 3f f7 7b 93 be
       0.112491116 -0.5029855 0.5483932 -0.28805515
000110 0d 4e 43 3f 49 f4 d6 3e 61 80 40 bf 09 78 17 be
       0.7629097 0.4198325 -0.7519589 -0.14791884
000120 02 5c ea 3c 2a b4 1b bf 5b bc 80 3e 7b 6b 9e be
       0.028608326 -0.60821784 0.25143704 -0.30941376
000130 46 b2 5e 3f 57 2c 92 3f e1 81 2b bf 70 96 24 3f
       0.86990774 1.1419781 -0.66995054 0.6429205
000140 8c 60 09 3f 62 3c 14 3e 45 ed 07 be a8 fe 89 bf
       0.53662944 0.14476159 -0.13274105 -1.078084
000150 23 7a 4e be 84 77 d8 bd fe ea 74 bd 18 a0 9b 3c
       -0.20163779 -0.10569671 -0.05979442 0.018997237
000160 53 e5 4c bf 08 5d d9 3e 2b 95 d5 be 86 fd 04 3f
       -0.8003742 0.4245379 -0.4171537 0.51949346
000170 54 56 17 bf 72 cf 54 be 5b 2c 3b bd 40 ed 62 bf
       -0.591161 -0.20782259 -0.045696598 -0.88643265
000180 c0 9a e3 bf 0a ce 84 bf 6f fc 02 bf 09 b1 2a be
       -1.7781601 -1.0375378 -0.51166433 -0.16669096
000190 b9 3f dd 3d 9f 88 67 3f 65 7b ad 3e da 4f 92 be
       0.1080317 0.9044284 0.33883205 -0.28576547
0001a0 6c 4d dd 3f 3b d9 82 3e 61 99 96 be de 16 1d 3f
       1.7289252 0.2555636 -0.29413894 0.6136302
0001b0 54 ff 93 be 3d 6f 95 bf f9 27 7f 3e 27 06 8d be
       -0.28905737 -1.1674572 0.24917592 -0.27543756
0001c0 03 2b f3 be 78 11 8f be f8 92 61 bf cb 7f 46 be
       -0.47493753 -0.27943015 -0.8811488 -0.19384687
0001d0 8e ae 8d 3e fa 9a 9c bd 8a c2 df 3c 88 6d 9f 3d
       0.27672237 -0.07646747 0.027314443 0.07784563
0001e0 0e ac 3e bf 84 a6 3d 3e ec 13 88 3f b3 76 4f 3e
       -0.74481285 0.18520552 1.063108 0.20260124
0001f0 22 0c 68 bd 07 15 89 3c 74 0f cd 3e b9 48 26 bf
       -0.056652196 0.01673366 0.40050852 -0.64954716
000200 ec c0 cb bf 43 db a1 be 5a 89 13 bf 13 49 79 3f
       -1.591825 -0.31612596 -0.57631457 0.9737713
000210 de fe 7a be b9 71 8c c0 a2 50 97 bf c4 df cf be
       -0.24511287 -4.388882 -1.1821482 -0.40600407
000220 fd e8 16 bd 7c f9 98 3f e5 6b 4e 3f e0 df 69 3c
       -0.03684329 1.1951137 0.80633384 0.014274567
000230 72 d2 4d 3e 0b 19 9c 3e 41 96 20 3f 43 4b 4f bf
       0.2009981 0.30487856 0.6272927 -0.80974215
000240 8b 38 cd be f0 c4 da 3d 41 78 a7 be 24 fc 27 bd
       -0.400822 0.10682094 -0.32708934 -0.041011944
000250 cd be 99 be 68 d7 83 3e 15 6c a8 3b 05 f1 1d bd
       -0.30028382 0.2575028 0.0051398375 -0.038559932
000260 45 91 1d 3f 79 a1 9c 3e c3 fd 82 3e 00 1e 66 3f
       0.6154979 0.30591944 0.2558423 0.89889526
000270 5a f3 2b 3f 58 d2 81 be 78 5a 0e be c9 71 29 be
       0.671682 -0.25355792 -0.13901699 -0.16547312
000280 8c 8b 56 be 94 19 0b bf 6f 5b 6e be be cc 50 3e
       -0.2095167 -0.54335904 -0.23277067 0.20390603
000290 37 ed 18 bd 84 2a 3c 3e dc 89 86 3c 34 20 a8 3c
       -0.0373356 0.18375593 0.016423158 0.020523168
0002a0 1a 3f eb 3e 0f 94 65 3f 3d 5e 83 be 80 d8 57 be
       0.4594658 0.89679044 -0.25657836 -0.21078682
0002b0 0c 91 14 be 8b 0f ad be c5 be a8 be a4 52 46 3e
       -0.14508456 -0.3380092 -0.32958046 0.19367462
0002c0 e6 0d b6 bd 96 cf e0 bc 11 bc 9c 3e 4a 47 c5 3e
       -0.0888937 -0.027442735 0.30612233 0.38530952
0002d0 1b 0e 5c 3c 27 34 d4 3c eb 77 8c 3b 79 09 73 ba
       0.013431097 0.025903774 0.0042867563 -0.0009271126
0002e0 59 64 a5 3b ff 8b 1a bc 0e 7d c4 3c b1 6c 07 3d
       0.0050473628 -0.009432792 0.023985412 0.03306264
0002f0 3e b7 a9 bb 6a 79 ee b9 85 0d 46 bb a7 cf a9 bd
       -0.005179315 -0.00045485358 -0.003022046 -0.0829156
000300 e0 a4 d6 3b ec cb f9 bb d9 b6 8d bc 34 85 3f bc
       0.0065504164 -0.0076231863 -0.017299103 -0.011689473
000310 0e 22 1a 3c bd b1 75 3c d8 26 e1 bd b6 a8 0e be
       0.009407533 0.014995989 -0.10993737 -0.13931546
000320 87 c1 19 be 13 ba 15 be b6 23 f1 be 93 a8 55 3e
       -0.15015231 -0.14621763 -0.47097558 0.20865087
000330 c5 fe 3a bf 01 06 2e 3f e5 d1 7c 3f bb 5f e6 3e
       -0.73045 0.6797791 0.98757774 0.44994912
000340 2c 55 a4 bd e6 69 9e 3e a8 2d b6 be 7e ae 8c be
       -0.08024058 0.3094017 -0.35581708 -0.27476877
000350 d0 ce ed 3e e6 d0 fe be 6d 42 40 3f c8 46 58 3e
       0.46446848 -0.49768752 0.7510136 0.21120751
000360 43 45 d4 3e 7a b7 8f 3e e1 60 e0 3f 15 77 32 3e
       0.41459092 0.2806967 1.7529565 0.17428239
000370 01 32 f6 3c 49 bb 65 bf 9c 13 58 3f 13 bd da be
       0.03005314 -0.897389 0.8440492 -0.42722377
000380 3c ba b7 3c c9 1b 8f be f9 55 fe bc f5 bc 0f 3e
       0.02242767 -0.27950886 -0.031046854 0.14036925
000390 5f a3 a7 bf ee 85 a0 bb 04 75 8c bf e5 a0 a1 3b
       -1.3096732 -0.004898778 -1.097321 0.00493251
0003a0 bb 00 b3 bd 58 03 16 3e 42 57 1d 3e c4 74 ae 3e
       -0.08740374 0.14649713 0.15365317 0.3407346
0003b0 2b 25 21 3f 41 41 23 3e 42 6f 34 3e f3 37 04 bf
       0.6294734 0.15942861 0.17620566 -0.5164787
0003c0 e6 7c 1a 3f b2 c2 40 3f 59 ed b6 3e 87 be 6c bd
       0.6034683 0.7529708 0.35727957 -0.05779889
0003d0 6c 67 8c be 6c c0 21 be da e7 4e 3e 96 a4 44 be
       -0.27422655 -0.1579606 0.20205632 -0.1920341
0003e0 ba e8 0b bf 7d cf 74 bd 62 09 de be a5 1c 94 bd
       -0.5465199 -0.05976819 -0.43366534 -0.07232026
0003f0 e9 f5 66 bf 79 42 cf 3e 7c 62 10 3e dc 4c d7 3d
       -0.9021898 0.40480402 0.14100069 0.10512707

mid_part.2.g.0.weight f4 [18, 18, 1, 1]
000000 b3 d6 8a 40 df 98 f3 3e 6d 86 1e 40 c2 c5 81 c0
       4.3387084 0.4757757 2.4769547 -4.0553904
000010 68 99 a6 be 71 3e fe 3f 97 9e 26 c0 c2 f9 55 40
       -0.32538915 1.9862806 -2.6034296 3.343369
000020 cd 01 c9 bf f0 09 88 3f a2 b5 19 3f 14 2f 33 40
       -1.5703675 1.0628033 0.60042775 2.7997484
000030 17 69 ca 40 7f fc 4c bf 12 d8 c6 bf b2 1c 75 c0
       6.3253284 -0.8007278 -1.553469 -3.8298764
000040 5e 31 bd bf 00 f3 8c c0 bc ad 2e 40 4e 4d 5a c0
       -1.4780691 -4.404663 2.729354 -3.4109683
000050 34 fe 8d bf c1 2c 1e c1 e3 a4 27 40 21 58 d4 40
       -1.1093202 -9.885926 2.619439 6.635758
000060 04 4b 9c c0 f4 04 33 3f 50 d9 a7 40 bb 4f 49 40
       -4.884157 0.6992943 5.2452774 3.1454914
000070 84 04 cb be 95 0f cb 3f f3 21 38 41 d4 6e 5b c0
       -0.39651883 1.586413 11.508288 -3.4286394
000080 78 a0 76 c0 04 1f 8b c0 3e ba 8f c0 44 aa aa 40
       -3.8535442 -4.347536 -4.4914846 5.3332844
000090 1f 4b 40 40 75 9a e7 bf 1b 8c a1 3e be 03 30 3d
       3.004585 -1.8094012 0.31552204 0.04297232
0000a0 46 eb 8b bf a2 ef 86 3f ee d2 ed bf 7a ee 69 bf
       -1.0931175 1.054188 -1.8579996 -0.9137951
0000b0 b7 d6 0e be 24 38 41 3e 57 c3 0a 3e c9 2b 3c 40
       -0.13949095 0.18869072 0.13551079 2.9401724
0000c0 ac 11 c6 3d 7e 0c b3 3e a5 5a cb 3f 45 d0 92 bf
       0.096713394 0.34970468 1.5887038 -1.1469809
0000d0 42 40 78 bf b0 87 0a be a0 cc 9f 3f 2e 56 80 3f
       -0.9697305 -0.13528323 1.2484322 1.00263
0000e0 c5 9a 26 40 13 bd 35 bf c7 5d 52 3f 83 3f e4 bf
       2.6031964 -0.7099163 0.8217434 -1.7831882
0000f0 6c cc 90 bf 55 3d 23 40 64 fc 72 bf 13 ad 62 3e
       -1.1312385 2.5506184 -0.9491637 0.22136335
000100 1d 5e 32 3e 93 59 ed bf 19 a8 2f bf 71 96 76 3e
       0.17418714 -1.8542961 -0.6861587 0.24080826
000110 c8 4d ff 3d df 55 bc 3f d1 4e 87 bf 43 e1 a1 3f
       0.124660075 1.4713706 -1.0570928 1.264687
000120 0e 13 a0 3e a3 e4 e5 3d b5 30 12 bf 70 78 c7 bf
       0.31264538 0.112252496 -0.5710557 -1.558363
000130 5b 0b 86 3f 24 56 56 3c 6c 9e 47 be 20 f6 3e be
       1.0472215 0.013082061 -0.19494027 -0.18648577
000140 5d 9a 8c be d5 10 cf 3e ff e8 8a bd bc 6e ef bf
       -0.2746152 0.4044253 -0.06782722 -1.8705668
000150 0c 45 9e be c9 05 75 be 0f 2c 8b bf 24 e1 08 3f
       -0.30912054 -0.23927988 -1.0872821 0.5346854
000160 79 d4 08 3f 20 59 64 3e f4 fa 33 c0 83 57 4e 40
       0.5344921 0.22299623 -2.812192 3.2240913
000170 52 6b bf c0 94 f8 86 40 91 63 2c bf 46 47 bd bf
       -5.9818506 4.217844 -0.67339426 -1.4787376
000180 17 5c 00 41 ed d4 bb 3e 53 19 b0 c0 e1 a7 68 bf
       8.022483 0.36685887 -5.5030913 -0.9088116
000190 67 68 b8 3d 67 26 c4 bf 65 0c 52 c0 24 61 ce 3f
       0.09004288 -1.532422 -3.2820065 1.6123395
0001a0 02 54 72 40 c7 17 46 bf 71 11 a8 40 10 70 06 bf
       3.7863774 -0.7738003 5.252129 -0.52514744
0001b0 2b c9 4b c0 a7 6d bf 3f 82 1a c1 3f e2 fb 1b 40
       -3.1841533 1.4955338 1.5086215 2.4372487
0001c0 a3 21 ff 3e 6d 59 14 c0 b5 6e b4 3e 97 bc 8b 3f
       0.4983035 -2.317958 0.35240713 1.0916928
0001d0 5e cc a1 be f9 3a 30 bf 3e df b6 3e 52 47 94 40
       -0.31601232 -0.68839985 0.35717195 4.633706
0001e0 a6 f6 98 3f a2 72 08 3d a2 2f b6 be 71 90 84 c0
       1.1950271 0.033312447 -0.35583216 -4.142632
0001f0 b6 28 1b c0 36 2c e7 3f 7b a4 ca be f6 6e 28 3f
       -2.4243598 1.8060367 -0.39578614 0.6579431
000200 b6 90 af bf c0 c2 2c 3f 26 e0 32 bf 00 bb f4 3e
       -1.3716037 0.67484665 -0.69873273 0.4779892
000210 a9 e5 1d 3f be b2 d5 3f b0 31 53 3f c9 c5 93 be
       0.6167856 1.6695173 0.8249769 -0.28861836
000220 42 c9 ff bd ec 63 51 be 04 fa 4c 3f e2 85 06 be
       -0.12489559 -0.20448273 0.80068994 -0.1313701
000230 84 15 34 bf 96 2f a4 3e 51 14 d4 3f 45 ea 65 bf
       -0.7034533 0.32067555 1.65687 -0.8981059
000240 99 54 8c bd f5 25 f5 3e 40 60 7e bf e7 3d d7 3f
       -0.06852073 0.4788052 -0.99365616 1.6815766
000250 75 cc 33 bf ac 0a 58 3e e8 44 86 3f b7 1c 13 bf
       -0.7023385 0.21097821 1.0489779 -0.5746569
000260 1d 28 46 3f 12 fe d5 be 38 a5 b4 be ce d1 16 c0
       0.7740496 -0.41795403 -0.35282302 -2.3565555
000270 6b 28 8c 3f 33 9b b9 3d 49 c7 86 3f 56 29 a8 3f
       1.0949835 0.09062805 1.0529567 1.3137615
000280 1e b5 71 3f 65 1a 91 bf 23 20 27 3f 1c 4f 13 3f
       0.9441699 -1.133618 0.6528341 0.57542586
000290 19 3b af bf 5f ef a7 3f 86 55 8f c0 1e f0 fa be
       -1.368991 1.3119925 -4.47919 -0.4901132
0002a0 a1 30 4c 40 e9 5e 3d bf 1a 00 8d 40 39 6b 1a bf
       3.190468 -0.73972946 4.4062624 -0.6031986
0002b0 06 9c 8d be 30 70 23 c0 74 60 77 3f 96 c8 98 be
       -0.276581 -2.5537224 0.9663155 -0.29840535
0002c0 f2 e1 07 40 39 81 22 3f c9 43 84 bf 15 86 88 3f
       2.1231656 0.6347843 -1.0333186 1.0665919
0002d0 6c 0c ad 3e e2 e7 1d 41 8d 66 2b 40 17 11 ab 3e
       0.3379854 9.869112 2.6781342 0.33411476
0002e0 e4 7f e0 be 0e 8c 5c 3e bb 84 18 bf 6b ce a4 3e
       -0.43847573 0.21537802 -0.5957753 0.32188734
0002f0 dc f6 76 be af 92 ac bd 17 bf c0 be 6d 36 b0 3f
       -0.24117607 -0.08426415 -0.3764579 1.376661
000300 e4 c5 28 bf 23 db 40 3e 6b 85 d4 40 ac 58 be 3e
       -0.6592696 0.18833594 6.6412864 0.37177026
000310 a9 c3 a5 bf 44 de 6c be 5b a2 ac be c0 d7 2a 40
       -1.2950336 -0.23131663 -0.33717617 2.6694183
000320 82 05 99 bf 6c ec 3b bf 04 af 2d 40 7f 5c 26 c0
       -1.1954806 -0.73407626 2.713807 -2.5993955
000330 46 d4 8b 3f 10 4a ea bc f0 4f c2 3e 91 da a9 3c
       1.0924156 -0.028599769 0.37951612 0.020734103
000340 68 83 97 be 70 26 7a c0 a8 35 4e bf 24 87 e7 bd
       -0.29592443 -3.908596 -0.8055062 -0.11305073
000350 d9 a4 18 bd 28 e7 22 c0 c9 df 2a 40 52 a7 75 3f
       -0.037266586 -2.5453587 2.6699088 0.95958436
000360 b0 7e 91 c0 67 78 d1 40 cb 06 55 c0 0c c8 11 40
       -4.546715 6.5459476 -3.3285396 2.277835
000370 07 60 d4 3f 01 4b 96 c0 58 e3 56 c0 df c2 5a 40
       1.6591805 -4.6966558 -3.357626 3.418144
000380 65 1e ac bf a5 a1 c9 be ce 1d 63 3f 7e 95 1a 40
       -1.3446776 -0.39381137 0.88717353 2.4153743
000390 08 87 08 bf 87 16 09 bf 20 e7 69 c0 d2 00 a6 3f
       -0.5333104 -0.5355 -3.6547318 1.2969
0003a0 03 ec 46 40 b2 5d 95 bf b3 0c 65 3f 56 f7 f8 bf
       3.108155 -1.1669219 0.894725 -1.9450481
0003b0 bb 02 23 3e a9 d7 b0 3e 77 71 49 bf b0 b6 7b 3f
       0.1591901 0.34539536 -0.7868876 0.98325634
0003c0 7d 91 97 3d 3d af 79 bf 4c 38 da 3e a5 36 a7 bd
       0.074007966 -0.9753302 0.42621076 -0.081647195
0003d0 fc 46 74 3f c8 95 51 bf 94 e3 39 bf a3 fa b8 3d
       0.95420814 -0.81869173 -0.7261288 0.0903218
0003e0 01 f4 9d 3d 43 a8 c9 bf 3d 5b c9 be f9 dc 9c 3e
       0.07712556 -1.5754474 -0.39327422 0.3063734
0003f0 ae 31 b2 3f 4e 51 9f 3f 09 90 8a 3f 14 bd 63 bf
       1.3921411 1.2446687 1.0825206 -0.88960385
